resource/exps/pop/model/bests.pth (torch_old, 836690 bytes, 115 tensors)

param f4 [99368]
00000000: f97b 9cbe 8f3a 853e d8fb a63e b91c 663f
00000010: 2978 96be e4e2 a4be 28d4 2abe 12ab 21bf
00000020: 7580 283f e8d9 a3be fbb4 8d3e 152a 203e
00000030: 3c81 223e 8b59 a9be 3cc3 1fbf 9499 67be
00000040: a494 1ebe 8eca c53e 0de9 99bd beaa adbd
00000050: 4935 363e ba5f 0b3f 773a 2fbe e323 3c3f
00000060: 0704 bd3e 2e55 583f 0f34 353e 768f 01bd
00000070: 15af 60be a566 0f3f 61d0 a5be 548a 59bf
00000080: 70fa 2d3d bc71 b83d 2706 abbe 031e df3d
00000090: a1f6 5c3e 6f34 c7be 29e1 15be 1d57 763d
000000a0: 6d02 383f f3da b93e a846 b23e 2f52 dfbe
000000b0: 2e03 d2be 04f3 063f c377 693e e28f 153e
000000c0: b99f ab3e d07e 16bf 8d07 1a3e c508 dabd
000000d0: bc14 543f e588 4fbe 8775 5ebf c532 2b3e
000000e0: 089e 903c 71cc 15bf 7f2a 273e 483c 763e
000000f0: 446b b1bc fc41 35bf a0d9 56bf 36fd d93d
00000100: c2ce 013c c32d e9bc 69ca 513f ccf2 90bd
00000110: 3422 0e3e 6059 dc3d bedf 523f b1e9 f43d
00000120: f654 3a3e a42c f83b 31be 513e e987 e4bd
00000130: c77c b0bd 074c 873e 48ec 70bb 756a 5e3c
00000140: 2bab 85bd 618b 5bbf 8a1d c23d ed70 be3e
00000150: 26f6 4abf 792a 0d3f 763f 593e 9fc1 8d3c
00000160: b6fd d53c a0e6 6ebe 8ba5 853d c286 c73e
00000170: 5971 05bf 6c15 523d fe7e 04be 4323 8cbe
00000180: c5f1 623d 0c62 803e 8bb3 953e a10f 8f3e
00000190: 16f3 98bd 064f a13e e681 bf3d 56b0 0c3d
000001a0: fc87 98bc 6c8d 103f d8c9 01be ca8e 37be
000001b0: 79f1 563e 9391 643e 62e7 f7be d668 e5be
000001c0: c883 c63d 065d cd3e 566c 003d 419f 67be
000001d0: e038 afbd 9b06 6f3c 79b7 20be 58af 0bbc
000001e0: 3718 5abe f1ce c1be 1fd9 1c3f 393c 9f3c
000001f0: 56bf f73e 01c0 973d b3cc 9fbe 3b18 3bbf
00000200: b696 80bd c90a b6bd 72be 86be 4b0b cbbd
00000210: 3d96 d93e 4fb3 e23e 495a 113d 6db5 1a3f
00000220: 7e6d f9bc 7bd7 7cbe 483a f8bd 670f 683e
00000230: 3a2c 62be b231 93bc 57fd ea3d 82fc 39be
00000240: 643e 47bc 4ed5 023f b2c8 39be 9ac3 e23e
00000250: 049b 00bf b711 98be 2d55 96be 3f94 d53e
00000260: 87f4 60bf bf81 18bf eb56 bcbe afb9 3ebe
00000270: a173 703d 39c8 093e 7c76 283d 4b06 abbd
00000280: 0c0f 9bbd 6f61 8d3d 3e90 cbbe dba5 d3be
00000290: 8b1f c93e f5ed 92bc 545f 1c3f a681 983e
000002a0: 12d4 12bf 5f60 b23d 3773 083d 48f8 b1be
000002b0: c593 143c ad86 9dbe 4c44 273f d0ea 173e
000002c0: 2d76 4f3f 20fd 443f 54d7 b6bd e9e9 a4be
000002d0: 69ab 13be cf7c 05bf 60e0 8b3e 61e5 75be
000002e0: ca95 b7be fb0b 0ebf 1ec3 00be 6dc5 0abf
000002f0: 9a79 1ebf e40f cebe bc2b 803d 2cb0 593f
00000300: aa11 61be b5e7 cb3d 55f8 a5bf d7fc 7c3e
00000310: 14ac e93e 6668 98be 52dd 533f 7ba4 bcbf
00000320: ce82 303f 966e e53f 1368 9c3e dda8 463e
00000330: fbae 9f3e 2b67 acbd b766 24be 3b47 6fbf
00000340: 462c 4dbd 04f3 e13e f8b7 c23e 4fe5 f8be
00000350: 48c7 32bf c6fe c33e 8f1d d73e 5194 a53e
00000360: 3f7a f8be dbba 883f 6771 4fbf 98be be3e
00000370: 21e8 0bbf cdcf 42bf 45ac 233f d733 413f
00000380: b028 6cbf d095 8cbc 0eda 9abf 189b a6bf
00000390: 0eb0 213f 7b7d df3e 57e0 9abe e47f 7d3e
000003a0: 4e2d 5ebf ff88 7ebe a9f4 9abd 17b5 62bf
000003b0: 1ab6 09bf 83fe 963f 5235 0d3e d9bb 6d3e
000003c0: f93f 0dbe 7ce1 873f de74 683e 86a7 ad3d
000003d0: b21d 703f a022 8bbf 2ffe a1be 64a9 be3e
000003e0: d8d2 05bf 1c44 913e 9698 843e 20e4 d0be
000003f0: e532 1dbf 38ca 0ebf 1851 d13f 8c0e 14be
-0.30563334 0.2602124 0.32614017 0.8988758 -0.2938855 -0.32204354 -0.16682494 -0.6315166
0.6582101 -0.32002187 0.2767714 0.15641053 0.15869612 -0.33076128 -0.6240728 -0.22617179
-0.1548639 0.386311 -0.07515154 -0.08479832 0.17793764 0.5444294 -0.17112146 0.7349226
0.36917135 0.84504974 0.1769564 -0.031630956 -0.21941788 0.56016 -0.32385543 -0.84976697
0.042475164 0.09006068 -0.3340313 0.10894396 0.21578456 -0.3890719 -0.14636673 0.06014167
0.718787 0.36299857 0.3481953 -0.4361739 -0.4101805 0.5271456 0.22799592 0.14605668
0.33520296 -0.5878725 0.15041943 -0.10646204 0.8284414 -0.20267065 -0.8689808 0.16718586
0.01765348 -0.5851508 0.16324805 0.24046433 -0.021657594 -0.7080381 -0.8392582 0.10643999
0.00792283 -0.028464204 0.8194948 -0.0707756 0.13880235 0.107592344 0.82372653 0.119586356
0.18196473 0.007573681 0.20482709 -0.11158735 -0.086175494 0.26425192 -0.0036761928 0.013575186
-0.06526788 -0.8575955 0.094782904 0.3719553 -0.7928184 0.55142933 0.21215615 0.01730424
0.026121955 -0.23330164 0.065257154 0.3897 -0.5212608 0.05128996 -0.12939069 -0.27370653
0.05540635 0.25074804 0.29238543 0.2794161 -0.0746824 0.31505603 0.09350948 0.034347855
-0.01861953 0.5646579 -0.12674654 -0.17925563 0.20990552 0.22321157 -0.4841872 -0.44806546
0.09693104 0.40110034 0.031353317 -0.22619344 -0.0855577 0.014588977 -0.1569499 -0.008525692
-0.212983 -0.37853196 0.612688 0.019437896 0.48388165 0.07409669 -0.3121086 -0.7308385
-0.06278746 -0.08888776 -0.26317173 -0.09914263 0.42497435 0.44277427 0.035486493 0.60433084
-0.030447718 -0.24691574 -0.12120491 0.22662126 -0.22087184 -0.017968033 0.11474102 -0.1816273
-0.012160871 0.5110673 -0.18142965 0.44289857 -0.50236535 -0.29701015 -0.2936186 0.41714665
-0.8787312 -0.59572977 -0.36785063 -0.1862552 0.058704022 0.13455285 0.04112862 -0.0835081
-0.07571229 0.069033496 -0.39758486 -0.41337475 0.39281878 -0.017935732 0.6108296 0.29786414
-0.57354844 0.087097876 0.033313002 -0.34759736 0.009068434 -0.30766812 0.6533859 0.14835668
0.81039697 0.7694874 -0.08927789 -0.3220971 -0.14420857 -0.5214357 0.27319622 -0.24013282
-0.35856467 -0.5548703 -0.12574431 -0.542075 -0.619043 -0.402465 0.06258342 0.8503444
-0.21979395 0.09956304 -1.296641 0.24705826 0.45639098 -0.2976715 0.82759583 -1.4737695
0.6894959 1.7924373 0.30548152 0.19400354 0.31188187 -0.08418115 -0.16054808 -0.93468064
-0.05009105 0.4413072 0.38030982 -0.4861245 -0.6983533 0.38280314 0.4201474 0.3233972
-0.48530766 1.0682024 -0.81032413 0.37254786 -0.54651076 -0.7609833 0.6393474 0.75469726
-0.92249584 -0.01716128 -1.2097795 -1.3016081 0.63159263 0.43650422 -0.30249283 0.24755818
-0.8678788 -0.24856947 -0.075661965 -0.8855757 -0.5379349 1.1796421 0.13789871 0.2321619
-0.13793935 1.0615687 0.22700831 0.08479218 0.9379531 -1.0869942 -0.3163924 0.3723861
-0.5227485 0.28372276 0.25897664 -0.40799046 -0.61405784 -0.5577731 1.6352873 -0.14458674

weight f4 [16, 32]
00000000: f97b 9cbe 8f3a 853e d8fb a63e b91c 663f
00000010: 2978 96be e4e2 a4be 28d4 2abe 12ab 21bf
00000020: 7580 283f e8d9 a3be fbb4 8d3e 152a 203e
00000030: 3c81 223e 8b59 a9be 3cc3 1fbf 9499 67be
00000040: a494 1ebe 8eca c53e 0de9 99bd beaa adbd
00000050: 4935 363e ba5f 0b3f 773a 2fbe e323 3c3f
00000060: 0704 bd3e 2e55 583f 0f34 353e 768f 01bd
00000070: 15af 60be a566 0f3f 61d0 a5be 548a 59bf
00000080: 70fa 2d3d bc71 b83d 2706 abbe 031e df3d
00000090: a1f6 5c3e 6f34 c7be 29e1 15be 1d57 763d
000000a0: 6d02 383f f3da b93e a846 b23e 2f52 dfbe
000000b0: 2e03 d2be 04f3 063f c377 693e e28f 153e
000000c0: b99f ab3e d07e 16bf 8d07 1a3e c508 dabd
000000d0: bc14 543f e588 4fbe 8775 5ebf c532 2b3e
000000e0: 089e 903c 71cc 15bf 7f2a 273e 483c 763e
000000f0: 446b b1bc fc41 35bf a0d9 56bf 36fd d93d
00000100: c2ce 013c c32d e9bc 69ca 513f ccf2 90bd
00000110: 3422 0e3e 6059 dc3d bedf 523f b1e9 f43d
00000120: f654 3a3e a42c f83b 31be 513e e987 e4bd
00000130: c77c b0bd 074c 873e 48ec 70bb 756a 5e3c
00000140: 2bab 85bd 618b 5bbf 8a1d c23d ed70 be3e
00000150: 26f6 4abf 792a 0d3f 763f 593e 9fc1 8d3c
00000160: b6fd d53c a0e6 6ebe 8ba5 853d c286 c73e
00000170: 5971 05bf 6c15 523d fe7e 04be 4323 8cbe
00000180: c5f1 623d 0c62 803e 8bb3 953e a10f 8f3e
00000190: 16f3 98bd 064f a13e e681 bf3d 56b0 0c3d
000001a0: fc87 98bc 6c8d 103f d8c9 01be ca8e 37be
000001b0: 79f1 563e 9391 643e 62e7 f7be d668 e5be
000001c0: c883 c63d 065d cd3e 566c 003d 419f 67be
000001d0: e038 afbd 9b06 6f3c 79b7 20be 58af 0bbc
000001e0: 3718 5abe f1ce c1be 1fd9 1c3f 393c 9f3c
000001f0: 56bf f73e 01c0 973d b3cc 9fbe 3b18 3bbf
00000200: b696 80bd c90a b6bd 72be 86be 4b0b cbbd
00000210: 3d96 d93e 4fb3 e23e 495a 113d 6db5 1a3f
00000220: 7e6d f9bc 7bd7 7cbe 483a f8bd 670f 683e
00000230: 3a2c 62be b231 93bc 57fd ea3d 82fc 39be
00000240: 643e 47bc 4ed5 023f b2c8 39be 9ac3 e23e
00000250: 049b 00bf b711 98be 2d55 96be 3f94 d53e
00000260: 87f4 60bf bf81 18bf eb56 bcbe afb9 3ebe
00000270: a173 703d 39c8 093e 7c76 283d 4b06 abbd
00000280: 0c0f 9bbd 6f61 8d3d 3e90 cbbe dba5 d3be
00000290: 8b1f c93e f5ed 92bc 545f 1c3f a681 983e
000002a0: 12d4 12bf 5f60 b23d 3773 083d 48f8 b1be
000002b0: c593 143c ad86 9dbe 4c44 273f d0ea 173e
000002c0: 2d76 4f3f 20fd 443f 54d7 b6bd e9e9 a4be
000002d0: 69ab 13be cf7c 05bf 60e0 8b3e 61e5 75be
000002e0: ca95 b7be fb0b 0ebf 1ec3 00be 6dc5 0abf
000002f0: 9a79 1ebf e40f cebe bc2b 803d 2cb0 593f
00000300: aa11 61be b5e7 cb3d 55f8 a5bf d7fc 7c3e
00000310: 14ac e93e 6668 98be 52dd 533f 7ba4 bcbf
00000320: ce82 303f 966e e53f 1368 9c3e dda8 463e
00000330: fbae 9f3e 2b67 acbd b766 24be 3b47 6fbf
00000340: 462c 4dbd 04f3 e13e f8b7 c23e 4fe5 f8be
00000350: 48c7 32bf c6fe c33e 8f1d d73e 5194 a53e
00000360: 3f7a f8be dbba 883f 6771 4fbf 98be be3e
00000370: 21e8 0bbf cdcf 42bf 45ac 233f d733 413f
00000380: b028 6cbf d095 8cbc 0eda 9abf 189b a6bf
00000390: 0eb0 213f 7b7d df3e 57e0 9abe e47f 7d3e
000003a0: 4e2d 5ebf ff88 7ebe a9f4 9abd 17b5 62bf
000003b0: 1ab6 09bf 83fe 963f 5235 0d3e d9bb 6d3e
000003c0: f93f 0dbe 7ce1 873f de74 683e 86a7 ad3d
000003d0: b21d 703f a022 8bbf 2ffe a1be 64a9 be3e
000003e0: d8d2 05bf 1c44 913e 9698 843e 20e4 d0be
000003f0: e532 1dbf 38ca 0ebf 1851 d13f 8c0e 14be
-0.30563334 0.2602124 0.32614017 0.8988758 -0.2938855 -0.32204354 -0.16682494 -0.6315166
0.6582101 -0.32002187 0.2767714 0.15641053 0.15869612 -0.33076128 -0.6240728 -0.22617179
-0.1548639 0.386311 -0.07515154 -0.08479832 0.17793764 0.5444294 -0.17112146 0.7349226
0.36917135 0.84504974 0.1769564 -0.031630956 -0.21941788 0.56016 -0.32385543 -0.84976697
0.042475164 0.09006068 -0.3340313 0.10894396 0.21578456 -0.3890719 -0.14636673 0.06014167
0.718787 0.36299857 0.3481953 -0.4361739 -0.4101805 0.5271456 0.22799592 0.14605668
0.33520296 -0.5878725 0.15041943 -0.10646204 0.8284414 -0.20267065 -0.8689808 0.16718586
0.01765348 -0.5851508 0.16324805 0.24046433 -0.021657594 -0.7080381 -0.8392582 0.10643999
0.00792283 -0.028464204 0.8194948 -0.0707756 0.13880235 0.107592344 0.82372653 0.119586356
0.18196473 0.007573681 0.20482709 -0.11158735 -0.086175494 0.26425192 -0.0036761928 0.013575186
-0.06526788 -0.8575955 0.094782904 0.3719553 -0.7928184 0.55142933 0.21215615 0.01730424
0.026121955 -0.23330164 0.065257154 0.3897 -0.5212608 0.05128996 -0.12939069 -0.27370653
0.05540635 0.25074804 0.29238543 0.2794161 -0.0746824 0.31505603 0.09350948 0.034347855
-0.01861953 0.5646579 -0.12674654 -0.17925563 0.20990552 0.22321157 -0.4841872 -0.44806546
0.09693104 0.40110034 0.031353317 -0.22619344 -0.0855577 0.014588977 -0.1569499 -0.008525692
-0.212983 -0.37853196 0.612688 0.019437896 0.48388165 0.07409669 -0.3121086 -0.7308385
-0.06278746 -0.08888776 -0.26317173 -0.09914263 0.42497435 0.44277427 0.035486493 0.60433084
-0.030447718 -0.24691574 -0.12120491 0.22662126 -0.22087184 -0.017968033 0.11474102 -0.1816273
-0.012160871 0.5110673 -0.18142965 0.44289857 -0.50236535 -0.29701015 -0.2936186 0.41714665
-0.8787312 -0.59572977 -0.36785063 -0.1862552 0.058704022 0.13455285 0.04112862 -0.0835081
-0.07571229 0.069033496 -0.39758486 -0.41337475 0.39281878 -0.017935732 0.6108296 0.29786414
-0.57354844 0.087097876 0.033313002 -0.34759736 0.009068434 -0.30766812 0.6533859 0.14835668
0.81039697 0.7694874 -0.08927789 -0.3220971 -0.14420857 -0.5214357 0.27319622 -0.24013282
-0.35856467 -0.5548703 -0.12574431 -0.542075 -0.619043 -0.402465 0.06258342 0.8503444
-0.21979395 0.09956304 -1.296641 0.24705826 0.45639098 -0.2976715 0.82759583 -1.4737695
0.6894959 1.7924373 0.30548152 0.19400354 0.31188187 -0.08418115 -0.16054808 -0.93468064
-0.05009105 0.4413072 0.38030982 -0.4861245 -0.6983533 0.38280314 0.4201474 0.3233972
-0.48530766 1.0682024 -0.81032413 0.37254786 -0.54651076 -0.7609833 0.6393474 0.75469726
-0.92249584 -0.01716128 -1.2097795 -1.3016081 0.63159263 0.43650422 -0.30249283 0.24755818
-0.8678788 -0.24856947 -0.075661965 -0.8855757 -0.5379349 1.1796421 0.13789871 0.2321619
-0.13793935 1.0615687 0.22700831 0.08479218 0.9379531 -1.0869942 -0.3163924 0.3723861
-0.5227485 0.28372276 0.25897664 -0.40799046 -0.61405784 -0.5577731 1.6352873 -0.14458674

weight f4 [1, 32]
00000000: 718f 233f 65b2 883f 8704 3a37 f1e7 24c0
00000010: 28bc 1fbe fb6f 9f3e 4b5a 593f 02ec 1c3e
00000020: 91b7 65bf b873 9ebd 7548 b7bf 030a aeb7
00000030: e6b0 083f ed74 9dbf c96c 093f 29cc 74bf
00000040: 4421 db3e c022 5a3e e6b5 1abf 2843 5738
00000050: 349e 1ac0 b446 63bc 9800 b7be b566 85bf
00000060: 9e29 a6bf 2348 a23f 2268 11bd 30dd ccbf
00000070: 771c 38bf 930c c73e 29f4 703f ff5b c13e
0.6389075 1.0679442 1.1087518e-05 -2.5766566 -0.1559912 0.31140122 0.849034 0.15324405
-0.89733225 -0.07736915 -1.4318987 -2.0747078e-05 0.53394926 -1.2301308 0.5368162 -0.95624024
0.42798817 0.21302319 -0.60433805 5.132254e-05 -2.415906 -0.013871837 -0.3574264 -1.0421969
-1.298145 1.2678264 -0.0354997 -1.6005001 -0.71918434 0.3887678 0.9412256 0.377655

weight f4 [32, 64]
00000000: 1d65 253c d6e6 043c d66f b03c c666 e63d
00000010: c38f 953b 1280 bfbd 8c9f e83d 7f04 30be
00000020: 99c4 973d 0f9f babd 0f83 72bd 9748 9f3d
00000030: ca47 663d 817f e93c df58 6dbd 2a0c dcbd
00000040: 424f 073d 0b91 babd 0c73 e23d b894 28bc
00000050: 2ff1 0f3c f8d4 0d3d 84ba d8bd a817 0dbe
00000060: 6c65 0c3e 78c3 26bc ae33 6cbd 87ab 723d
00000070: d186 11be 4cec 8dbd a62d 69bd 66cd 70bd
00000080: c9e0 6f3d 3683 16bd f385 e738 630c fd3c
00000090: c018 0f3c d9dc efbc 1c9d 693b e406 e43c
000000a0: 1908 cf3d f53c 633c 15aa 63bd 28a7 f5b5
000000b0: 47f9 12bd 9621 05bd 5fc0 9fbd 57b9 0abd
000000c0: 65ba 533c 9b32 6b3d de62 82bd 229a af3a
000000d0: afe3 e03c 7864 b33b 695c 463d 7a6a 4b3d
000000e0: cc1e 71b9 0a1e 34bd 340b 96bb 2756 68bd
000000f0: 7b58 b03b 4c6d 4bbd 0804 2e3d c525 843d
00000100: 7be8 fd3c c067 573d a9cb 8d3d 1ab9 563c
00000110: 5e85 febc 2ee1 db3d a0fd 27be 11e5 033d
00000120: a4b3 20bd 8820 b9bd 3440 cabd 42ec 0f3e
00000130: b569 85bc 0e1f ce3d 0d59 80bd 7783 7d3d
00000140: 3fe4 81bd 034e fbbd 6b32 7ebb bdbf c1bc
00000150: 413e 2f3e e0e8 103e 65dd 223e dde7 893b
00000160: 7155 fc3b 28d1 553d a143 d43d 1bdc adbc
00000170: 7891 053e 7209 d3bd 5fe2 93bd 0c97 08bc
00000180: 349c c4bc 9121 823d 3227 1e3a 820f 9fbd
00000190: 1aae b93d ccc3 1bbd c6ef 31bd 4ac5 f93c
000001a0: e6e6 b3bc 0d9d ec3a 13fc 073d 2fdd bf39
000001b0: 2978 9ebd e948 e63d 17cc d53a 335b bbbd
000001c0: cf31 c7bd c37e 16bc 08c5 603d a8e1 d73b
000001d0: b3b8 e03c cc73 143c 89a4 e73d aeea d3bd
000001e0: 2c67 2bbd c97d c03d 3f72 b9bc ecb3 26bd
000001f0: 233c 0cbd 6328 bc3c 90ae cd3d 662b 4d3d
00000200: b200 273d a9c5 c63d bdfb 1bbe 071d 09be
00000210: 4d27 7bbd 76b5 c4bd 1988 efbd f363 9fbd
00000220: 8cd9 e03d 6173 223d 1460 d03d 4983 a73d
00000230: 5ccd 02bd 5f6f b8bd df0c 02be aed9 673d
00000240: 8f48 bd3d 0e62 abbe 44a8 0b3e 40fc 1cbe
00000250: deec 36bc 5476 4f3e 8ddc a13d ea8f 28bd
00000260: 1959 b53d 34a9 ca3d 8157 f63c 9285 0cbc
00000270: 7cb5 173d 36de 873c cdd3 c53c 5110 043e
00000280: b7d6 ecbc e960 9abd e4db b937 4233 1cbd
00000290: 29a6 f6bc fd54 ba3d aca0 55b8 b154 b9bb
000002a0: 835e 983d 3c2c e33a 54b9 843d bc3e d938
000002b0: bdcb ed3d a05b 05bc 3ec3 9ebc d3cd c7bd
000002c0: 09d0 78bd b864 b13d 4955 70bd 6cb8 2139
000002d0: c2ca 98bc 7525 05bc a9c9 94bc 8a3e 8fbc
000002e0: b6d8 17bc 839a 9c3d ef2b dd39 47f7 65bd
000002f0: 3bd8 113d 880d 60bb d269 0c3e b211 ec3d
00000300: b136 bc3c f0fb 53bd 7778 22be 9158 2cbe
00000310: 0817 b23c 61e5 f5bd a337 693c 93ea d2bd
00000320: 1db7 acbd 0c35 2e3e 35cc f33c 52fa f8bd
00000330: 4847 01bd e7ad 0e3c fb34 913d 5a7a b9bc
00000340: b2e4 66bd 1786 b13d 4e4d 343d f4f2 90bd
00000350: 6dbb c23d 58c1 cc3c 7255 633d 8930 1fbd
00000360: a763 0cbc 9cf4 febb 9766 283d 9e8d 8f3c
00000370: 242a 85bd 9153 293d e6c0 ae3a aee8 723d
00000380: ea1d 90bd a2bf f63d c064 9239 cd28 84bd
00000390: 428f 22bd 02e4 f33c d9b4 9e3d c6aa 7c3a
000003a0: 25c0 fbbd 24c8 6dbd da95 c63d 6d6b 85b9
000003b0: ad5d 893d 5b60 fbbd 3e53 05bd 6041 f8bd
000003c0: ac81 4d3d ed85 5e3d 324b 5fbd 9aee f1b9
000003d0: 7ebe c83d 2773 24bc 076d 8fbd 8c0c e03b
000003e0: accb 343d cc32 203d 5f8c f7ba 77c0 f13c
000003f0: ec90 ecbc 7add 5ebb 7df5 953d f177 a43d
0.010094908 0.008111676 0.021537703 0.11250071 0.004564257 -0.09350599 0.11358556 -0.17189215
0.07410545 -0.09112369 -0.05920702 0.07777517 0.056220807 0.028503181 -0.057946082 -0.107445076
0.03303457 -0.09109696 0.110571 -0.010289364 0.00878553 0.03462693 -0.1058245 -0.13778555
0.13710564 -0.010178439 -0.057666473 0.059245612 -0.14211585 -0.06929836 -0.0569283 -0.058789633
0.05856398 -0.036746226 0.00011039888 0.030889696 0.008733928 -0.029280113 0.0035646623 0.027835317
0.101089664 0.013869514 -0.055582125 -1.8302571e-06 -0.03588226 -0.032502733 -0.07800364 -0.03386816
0.012922858 0.057421308 -0.06366514 0.0013397376 0.027452318 0.0054746233 0.048427973 0.04966209
-0.00022995024 -0.04397396 -0.0045789722 -0.056722786 0.0053816414 -0.04966478 0.042484313 0.064525165
0.030994644 0.052589178 0.06923611 0.013105655 -0.031069454 0.10736309 -0.16405344 0.032200877
-0.03923382 -0.09039408 -0.09875527 0.14054969 -0.016285757 0.10064517 -0.06266985 0.061892953
-0.063423626 -0.12270739 -0.0038787376 -0.023650998 0.17113592 0.14151335 0.15904768 0.0042085485
0.007700615 0.05220142 0.10364462 -0.021223119 0.13043773 -0.10304536 -0.07220911 -0.008336794
-0.024000265 0.063540585 0.0006033062 -0.0776663 0.0906641 -0.038028523 -0.043441556 0.030489583
-0.021960687 0.0018052176 0.03319938 0.00036595154 -0.077377625 0.11244375 0.0016311434 -0.09148254
-0.09726297 -0.009185496 0.054875404 0.0065881796 0.027431821 0.009060811 0.113106795 -0.10347496
-0.04184644 0.093989916 -0.022637485 -0.04069893 -0.03423704 0.022968477 0.10043061 0.050090216
0.040772147 0.097056694 -0.1523275 -0.1338998 -0.061316777 -0.096049234 -0.116958804 -0.07782736
0.10978994 0.039660815 0.101745754 0.081793375 -0.031934127 -0.09005617 -0.12700222 0.05660408
0.09242355 -0.33473247 0.13638407 -0.153306 -0.011164872 0.20259982 0.07903395 -0.041152872
0.08854885 0.09895554 0.030071022 -0.0085767675 0.03703831 0.01658545 0.024148846 0.12896849
-0.028910978 -0.075380154 2.2156113e-05 -0.03813482 -0.030108528 0.090982415 -5.0932795e-05 -0.005655848
0.07439902 0.0017331908 0.06480661 0.000103590515 0.116111256 -0.008139521 -0.019380208 -0.09756055
-0.060745273 0.08661789 -0.058675084 0.00015422859 -0.01865137 -0.008126606 -0.018162565 -0.017485876
-0.0092679765 0.07646658 0.00042185138 -0.056144025 0.035606604 -0.0034187753 0.13712242 0.115268126
0.022975298 -0.05175394 -0.15866266 -0.1683066 0.021739498 -0.12006641 0.014234456 -0.10298648
-0.084333636 0.17012423 0.02976046 -0.1215712 -0.03156212 0.008708454 0.07090183 -0.02264135
-0.056370445 0.08668154 0.044019036 -0.0707759 0.09508405 0.024994537 0.05550141 -0.038864646
-0.008568681 -0.0077806246 0.041113462 0.017523583 -0.06502178 0.04133946 0.0013332635 0.059303932
-0.07036956 0.1204827 0.00027922355 -0.06453095 -0.039687403 0.029771809 0.07749338 0.00096384843
-0.12292508 -0.058052197 0.09696551 -0.00025447775 0.0670732 -0.12274238 -0.03255009 -0.12121844
0.050172493 0.05432694 -0.05451507 -0.00046144874 0.098019585 -0.01003722 -0.07003217 0.006837433
0.04413955 0.039110944 -0.0018886438 0.02951072 -0.028877698 -0.0034006522 0.07322214 0.080306895

bias f4 [32]
00000000: ea2a 88bd ed09 3b3d 3b98 73bd 4954 b0bd
00000010: a2de 253d 4e18 a339 37ba abbd aaf8 1d3b
00000020: ffca b6bd 40e2 90bd b8a1 3dbd a6dc e6bc
00000030: e3c4 863d a9ca 9b3d e07f fb3d 17a2 e53d
00000040: 7d5d bb3c 16a2 5e3b 9863 9fbd 99c2 dabb
00000050: 53d7 9a3d a43c 04be c7ae d53d 3362 af3d
00000060: acef 45bd a2f3 b6bd 26c0 e53b 41ef 5a3d
00000070: 494f 94bd 9bc4 7d3d 86d9 a33d 7ef1 91bc
-0.0664881 0.045663763 -0.05947135 -0.08609826 0.040495522 0.0003110789 -0.08385127 0.0024104514
-0.08925437 -0.07074404 -0.046296805 -0.028181385 0.06580522 0.07607014 0.122802496 0.11212557
0.022871727 0.0033971122 -0.07782668 -0.00667603 0.07560601 -0.12913758 0.10433727 0.08563652
-0.048324272 -0.08933188 0.0070114313 0.053450827 -0.07241685 0.061955076 0.08000474 -0.017815348

weight f4 [16, 32]
00000000: 4454 45bd db87 0b3e 66e9 483e ca48 f63d
00000010: b0dc bfbe 10d5 553d 3988 613c 2cad 013e
00000020: ccfc d7bd e6f9 f1be f7e0 66be 44b8 693e
00000030: 2d42 b1be 8cc3 e23d ab0d 39bf 8c85 503e
00000040: 3c21 a63e dbd5 2b3d a005 f2be 267e 1d3f
00000050: e395 c9be ca32 6abc d4d4 a0bf 60da 39be
00000060: 42f8 4e3d faf2 37bd 03dc 25be b639 693d
00000070: 2edf e43e dbbb 513f 0de3 033f cc8a e13e
00000080: 64bf 2f3e 25d2 ad3e 533e c03d d90e b4be
00000090: 15ae a33e 54a1 85bd 2e26 56be 7afc 34be
000000a0: 4f86 973e e34c 36be 65b4 02bd 8936 36be
000000b0: 8ac6 17be 8081 04be 0e7e 853e c96f 7a3e
000000c0: 2f03 16be 1616 ce3c d9d4 853e 4374 1cbe
000000d0: 9d50 b33d d8c3 89be e494 e93d b233 573e
000000e0: f352 5bbe f449 313e 7f53 80bf 0b1b cabe
000000f0: 9cdd 013f e9f8 f53e 920c 2a3f 89b8 b9bd
00000100: a038 04be 7e9c 44bc cc58 833e e4d3 09be
00000110: 6f69 b9bd 26dc 64be 8043 f63e 308d 99bd
00000120: 02bc dbbe 76b4 7abe db81 fcbd e023 163f
00000130: f957 e53d 6fdd 513e c2e0 5bbe 35a9 ebbd
00000140: 152e 02bf 6a79 5e3e bb92 dc3d e37f 5d3e
00000150: da52 7a3c 37e6 4e3e bdda 7e3e 1762 e63c
00000160: df2e 1d3e 097b 0dbe 99a4 bcbf 14ac d4be
00000170: c03f 15b7 d55f 593e 7c1e 8f3e 240c 223e
00000180: 9d35 0c3e 149a 723f 810b 5b3e 51ad ee3e
00000190: 867f 5cbf 202e 96be 7218 9b3e 9f49 9bbc
000001a0: cf1c b63e 7daf 05bf b2c9 063f c43f a03e
000001b0: 1911 18be cfc2 e83e 01a1 30bf 77cb 63bd
000001c0: 6630 19bf d42f 47bf 051d debd 3073 afbe
000001d0: 544d 1f3e 69ec 223e 0c37 213f 3ed9 483e
000001e0: 48ec e6bd a01d 663e 630b 9e3d 3454 20be
000001f0: f5b0 eb3e 6acc 223f ea94 cfbd abee d93e
00000200: eec7 093e 4ac2 cf3e 74c6 703e aceb fbbe
00000210: 3a0b debc 266f 4cbf ff1f 9cbc 7192 61bd
00000220: 83ec 713f db92 8dbe 6834 b5bc 16c2 3cbe
00000230: 2aa0 7ebd cfd2 eabc 922a 38bd 0c47 463e
00000240: 91bc 80be 4ea2 b83e f241 afbe 0ac8 a8be
00000250: d21f 433e e9e9 853f d668 693e 5052 293f
00000260: afbb 7d3e 2068 2abd 071f 1f3f b239 8a3d
00000270: c85a 753f fe6a b2be c32e 413e 6349 f63d
00000280: 005d f8be 7c90 0d3f 39e9 f83e ca5d f13d
00000290: e1d2 513e 1a01 e63d 2ba2 87be 7fc2 73be
000002a0: 5493 7dbe e5d4 bf3e cfa5 8d3e 9006 043a
000002b0: 66c1 26bf 6dc8 6a3e 88af 8b3d 1538 55be
000002c0: 4bb9 9f3e e182 99be 60c9 003d b998 b4be
000002d0: ec0b 56be a86d fbbe 66d9 95be c13f 18bf
000002e0: 4d9b 03be 98f0 38be ba60 dcbe 5aee 95bd
000002f0: ad2c 93bf 134a b6bc e2b6 09bf 8ac9 183f
00000300: c849 a53f 3f37 8b3e 31a1 55bf fc82 23bf
00000310: 4ef0 11be f7e1 1d3f 61e0 3a3e 9023 1cbf
00000320: 8419 00bf d5b5 ee3e 235c 9e3c 6139 f4bd
00000330: 03f0 70bf d453 cfbe 4be3 b7be 501c 4ebf
00000340: e7be 74bf 4c86 e93e f78f 943d 37ce c43d
00000350: 815d 973f b387 343f b915 183e d913 1dbf
00000360: 8907 3abe 0da9 25be 6de2 76bd 192c e43e
00000370: 78c6 66be 75db 12bf b945 2abf f21c 82be
00000380: 6985 b1be 08d4 64bf e214 5dbf b991 353e
00000390: 1c7c 15bf 5109 513f edbb a23f eeda 2ebf
000003a0: 171d 213f 6054 8abd 5eb2 07be 5998 e33e
000003b0: acbb 26bc 91a4 0e3f 59bc a5be 893b 843f
000003c0: 09b9 69bf a375 823d 755f a4be 5d84 f7bf
000003d0: 5cb0 aabe dfea dc3e 63f9 43bf cf0d 703f
000003e0: 4b23 bebe d3f0 57be 6298 0bbf f758 733f
000003f0: 53fd afbe 64ab 32bf d1f4 06bf 184a c2bf
-0.048176065 0.13626043 0.19620284 0.12025602 -0.3747306 0.052205145 0.013765388 0.12663716
-0.10546264 -0.4726097 -0.22546755 0.22824198 -0.346208 0.11072454 -0.7228648 0.20363444
0.3244723 0.041951995 -0.47269917 0.6152061 -0.39372167 -0.014294336 -1.256495 -0.1814971
0.050529726 -0.044909455 -0.16197209 0.056939803 0.44701523 0.8192727 0.51518327 0.44051206
0.17162853 0.3394939 0.093868874 -0.35167578 0.31968752 -0.065249115 -0.20913002 -0.17674437
0.29594657 -0.17802767 -0.03191032 -0.17794241 -0.1482183 -0.12940025 0.26072735 0.24456705
-0.14649652 0.025157016 0.26138952 -0.15278725 0.0875561 -0.2690723 0.11405352 0.21015814
-0.21418361 0.17313367 -1.0025481 -0.39473757 0.50728774 0.48041466 0.6642543 -0.090684004
-0.12912226 -0.012000201 0.25653684 -0.13459736 -0.09053313 -0.22349605 0.48098373 -0.074976325
-0.42916876 -0.24482903 -0.123294555 0.5864849 0.1119842 0.20494626 -0.21472457 -0.11506883
-0.50851566 0.21726003 0.10770174 0.21630816 0.015278542 0.20205007 0.2488813 0.028122945
0.15349911 -0.13816465 -1.4737731 -0.41537535 -8.895935e-06 0.21227963 0.27952945 0.15824944
0.13692327 0.94766355 0.21391107 0.46616605 -0.86132085 -0.29332066 0.30292088 -0.018956004
0.35568854 -0.522209 0.5265151 0.3129865 -0.14850272 0.45461127 -0.6899567 -0.05561396
-0.59839475 -0.77807355 -0.10845379 -0.3426757 0.15556842 0.15910496 0.6297462 0.19614121
-0.11275536 0.22472239 0.077170156 -0.15657121 0.46033445 0.6359316 -0.10135825 0.42564902
0.13455173 0.40577918 0.23513204 -0.4920324 -0.027104963 -0.798571 -0.019058226 -0.055071298
0.94501513 -0.27651104 -0.022119716 -0.18433413 -0.062164463 -0.028664974 -0.044962473 0.1936304
-0.25143865 0.3606133 -0.3423 -0.32965118 0.19055107 1.0462009 0.22793898 0.66141224
0.24778627 -0.041603208 0.6215672 0.06749286 0.95841646 -0.34847254 0.18865494 0.12025716
-0.48508453 0.5529859 0.48615435 0.11785467 0.204906 0.11230679 -0.26490912 -0.23804663
-0.24763232 0.37467113 0.27665564 0.0005036378 -0.6513885 0.22928019 0.06820589 -0.20822175
0.31196055 -0.29982665 0.031442046 -0.35272768 -0.20902985 -0.491071 -0.29267424 -0.5947228
-0.12852211 -0.18060529 -0.43042547 -0.073208526 -1.1498009 -0.022252118 -0.5379468 0.59682524
1.2913141 0.27190587 -0.83449084 -0.6387174 -0.14251825 0.6167292 0.18249656 -0.60991764
-0.50038934 0.46623102 0.019331044 -0.11925007 -0.9411623 -0.40493643 -0.35915598 -0.8051195
-0.95603794 0.45610273 0.072540216 0.09609645 1.182541 0.7051956 0.14852037 -0.6135841
-0.18166937 -0.16177769 -0.06027453 0.44564894 -0.22536647 -0.57366115 -0.6651264 -0.2541271
-0.34672096 -0.89386034 -0.8635999 0.1773137 -0.583925 0.8165484 1.27136 -0.6830281
0.6293501 -0.067543745 -0.13251635 0.4445217 -0.01017658 0.5571986 -0.3237026 1.0330669
-0.91297966 0.06370094 -0.32104078 -1.9337269 -0.33337677 0.43147942 -0.7655241 0.9377107
-0.371363 -0.21087961 -0.5452939 0.95057625 -0.3437296 -0.6979277 -0.5271731 -1.5178862

weight f4 [1, 32]
00000000: eca2 273f 54d5 31bf 8fc2 47bd a4ed 543f
00000010: 0f55 353f fc0f 71bf bc98 d13e 03ff 1c3e
00000020: fc9d 303d d79a 3f3f 4d5c 433e 0d68 89bf
00000030: a42d 8ebf 1e36 c437 fc86 3bbf 11c8 6ebe
00000040: 278e 2f38 a789 53bf c27b dcbe 1593 203f
00000050: 4a96 0dc0 1f6e 6f3e 5405 c5be 4517 f63e
00000060: fcde 523c 914b 18bf 3716 e5ba c822 a2bc
00000070: f272 983e c3e6 ba3f 2255 de3c c110 c13f
0.65482974 -0.6946614 -0.04876953 0.8317511 0.70832914 -0.94165015 0.4093684 0.15331654
0.043119416 0.7484564 0.19078179 -1.0734879 -1.1107678 2.3390221e-05 -0.73252845 -0.23318507
4.185564e-05 -0.82631916 -0.4306317 0.6272443 -2.212298 0.23381852 -0.38480628 0.48064628
0.012870546 -0.59490305 -0.0017477934 -0.019791976 0.29775196 1.4601673 0.027140204 1.5083238

weight f4 [32, 64]
00000000: ec68 edbc 6773 e83d 8fd0 dabc 8604 c2bd
00000010: 9e70 463e 723a 6f3c 367b 56bb d28f 27bd
00000020: 6ef5 23be 3e8b e43c 7940 e13d 684d 97bd
00000030: d26c 9b3c c863 04be c60b 7abd 050c 1bbe
00000040: 872c b53c 8241 2f3d a0ba f53d 2e48 123e
00000050: 72ee 343e 6d63 8c3d 4356 5b3e b1f0 13bd
00000060: 88a1 7e3d f2b5 5a3d 9847 03be 97e7 54be
00000070: e1ae f93d 7300 e5ba 77ce 29bd c0a4 113c
00000080: 1544 023d 0faa 31bd 247f 2d3c 9b70 92bd
00000090: 2c6f 75bd b3a7 8e3d 3641 303d 975a 24bd
000000a0: 4447 e83c fbca 88bd 3ff0 833d 7519 a33c
000000b0: b3b1 a23d 1348 9f3a a061 5fbd 0bf0 2b3d
000000c0: 55c9 87b8 eef6 81bd 1b24 44bd 3f6b e33c
000000d0: be6e c8bd 36e3 493c b57f 5b3c c253 a13c
000000e0: a55b fa3a 55b9 9abd 58dd 76bb 5f68 8e3a
000000f0: 6ffd afba 48f8 bfbc eeae 903c f9f7 053e
00000100: e523 18bd 1e81 0b3e d740 8fbd 5607 3d3b
00000110: 21cb 67bc fba9 9cbd d311 c9bd 6274 abbd
00000120: 67d7 d1bb 0b67 0bbc ebad 7fbb 974a 88bd
00000130: dfa8 4fbb ea36 dcbb 581a 93bd 851c 77bd
00000140: 6647 c0bd c160 b2bc 8d81 02bd 69e2 633d
00000150: 2d65 253e e8ce e03d 70ad b1bd efdc b1bd
00000160: 2b31 66bd 5648 023d 3bcc a43d f011 163d
00000170: ac9b 153d 0bab 17bd b382 8f3c 523a 273d
00000180: c156 713c 2556 c13c 639b cdbc 3e10 813d
00000190: d198 8a3d adca a83d ef9c a93d c0f8 8bbd
000001a0: a12d 343d 031a 373d b1aa b1bd c378 ee3c
000001b0: eb44 d4bd 3753 1139 30b6 063d ab78 b13c
000001c0: 6677 a339 e5d4 7c3d 1acc 75bd c740 85bd
000001d0: dd94 b0bd 7b25 b4bc 3d1e eb3c 670e fd3c
000001e0: b73f 203d 436a 58bd b062 dd3c 0a35 14bd
000001f0: 0c2e 49bd 46cd ddbc 308d 003d 81b2 713c
00000200: 07b5 ab3d 04e7 093e 8862 5ebd be02 d3bd
00000210: 8862 f13d 930b c23d f974 b7bb 29e1 fd3d
00000220: ffc8 65bd 3597 013d bf29 14bd 9201 a4bd
00000230: 0e38 d7bd d495 803d 9340 2dbd 7813 79bd
00000240: 9220 0a3d 7b12 043e 029d fdbd d6c0 ff3c
00000250: 94b4 fdbd 06ec d6bd 1ca6 01be 74ed 0ebe
00000260: 3bad adbd 3f1c b53c 5436 d8bc 3fa7 ddbd
00000270: 0c5a 2cbd 1192 193d 4aeb 73bd 6f09 1c3e
00000280: 21ac 2fbb 7055 e4bc 8f82 eb3b 0b4d ef3c
00000290: 839a 8e3d 8f71 7a3d ee05 b73c 7089 da3b
000002a0: 398d 28b9 00dc 5abd b514 18bd 9496 58bd
000002b0: 349d b2bc 0ebe 8f3a 9e7b 413d 9fcb fd3b
000002c0: 3c80 c3b8 b855 813c bb26 a23c 23ef eabc
000002d0: f838 f03c d7aa 053c 97a8 2b3d debb 7cbd
000002e0: 3be7 89ba e0ba 873b 2f6d 5abb 3e27 ebba
000002f0: 7468 87bd a9f4 893c a9a3 753a f0a3 09bd
00000300: 9b2a 1ebd 1dd9 7b3d dcf9 b33d d820 86bc
00000310: 97e8 cdbd e5d1 8b3d daa5 ffbd 5e82 9fbd
00000320: bd6d 7a3d 4f05 733d c1e2 033c a01c c0bd
00000330: ea69 07be 01ca fdbc de3e f13d a4bc f2bb
00000340: 5ac3 413d 7a52 51bd 1ca7 64bd e8f3 7abc
00000350: 13ef 99bd 1dca 7b3c e254 aebb aeea dd3b
00000360: 8efb 223c 021c acbd b381 f23d 1bff 86bd
00000370: 48a1 9f3d 07cb 1a3c 4db9 833d 0d99 703d
00000380: 453c 0fbd 967e c63c 905e f03c a4b4 01bd
00000390: 15dd 293b de3f ca3d 4c19 16bb 630d 97bc
000003a0: 8116 07bd fa38 ab3d 1be3 46bd 982b 79bb
000003b0: 99fa f33c 9b1e f939 02ca c03d 57d5 083d
000003c0: 5155 273a fe37 f03c 6268 48bd a27e ddbd
000003d0: 538a 9c3d 92fe ab3c ca4e e63b 126a 6d3d
000003e0: 1a01 553b a3a9 223d c7bd cd3c dc9a 313c
000003f0: cda7 91bc 22bb aa3d 9d8d 273c 4af6 8c3d
-0.028980695 0.11350136 -0.026710777 -0.09473519 0.19378898 0.014601337 -0.0032727248 -0.040908642
-0.16011593 0.027898427 0.10998625 -0.07387811 0.018972788 -0.12928689 -0.061046384 -0.15141304
0.022115959 0.042787082 0.119984865 0.14285347 0.17669085 0.068549015 0.21419625 -0.036118213
0.062165767 0.053396173 -0.1282028 -0.2079147 0.12191559 -0.0017471447 -0.041456666 0.008889377
0.03180321 -0.04337507 0.010589395 -0.07150384 -0.059920475 0.0696558 0.04303094 -0.040125456
0.028354295 -0.066793405 0.06442308 0.0199096 0.0794405 0.0012152217 -0.05453646 0.04197697
-6.474803e-05 -0.06345926 -0.047885995 0.0277611 -0.097867474 0.012322238 0.013397147 0.01969326
0.0019100799 -0.075548805 -0.0037668552 0.0010864845 -0.001342697 -0.02343382 0.017661538 0.13082875
-0.037143607 0.13623473 -0.06994789 0.0028843484 -0.014147551 -0.07649609 -0.09817853 -0.08371808
-0.006403852 -0.008508454 -0.0039013575 -0.06654852 -0.0031686348 -0.0067204135 -0.07182759 -0.060329933
-0.09388618 -0.021774651 -0.03186183 0.055635843 0.16151877 0.10976964 -0.08675659 -0.08684718
-0.056199234 0.031807266 0.08046766 0.0366382 0.036525413 -0.037028354 0.017518377 0.040827103
0.014730156 0.023600647 -0.025098508 0.06301926 0.06767429 0.08241782 0.08281886 -0.06834555
0.043988828 0.04470254 -0.08675135 0.029110318 -0.103647076 0.00013859278 0.03288859 0.021663984
0.00031178741 0.06172647 -0.0600091 -0.06506496 -0.086221434 -0.021990528 0.028700942 0.030890657
0.039123263 -0.052835714 0.027024597 -0.036183394 -0.04911618 -0.027075421 0.031384647 0.014752031
0.083841376 0.13467032 -0.054293185 -0.103032574 0.117863715 0.09474864 -0.005598661 0.123964615
-0.056099888 0.031638343 -0.036172625 -0.08008112 -0.105087385 0.062785774 -0.04229791 -0.060809582
0.033722468 0.12897675 -0.123834625 0.031219881 -0.12387958 -0.10494237 -0.12661022 -0.13957769
-0.08480307 0.022108195 -0.026393093 -0.10822915 -0.042078063 0.037492815 -0.05955056 0.15237974
-0.0026805478 -0.027872771 0.0071871947 0.029211542 0.069630645 0.061143454 0.022341695 0.006669216
-0.00016074338 -0.053432465 -0.037129123 -0.052877977 -0.021803476 0.0010966675 0.04723703 0.007745221
-9.32221e-05 0.015787944 0.019793859 -0.028678482 0.02932404 0.008158407 0.041908827 -0.0617026
-0.0010521183 0.0041421503 -0.0033329239 -0.0017940772 -0.0661172 0.016840296 0.00093703956 -0.03360361
-0.03861485 0.061486352 0.08787891 -0.016373083 -0.100541286 0.068271436 -0.124828056 -0.077885374
0.06113981 0.059331235 0.008049668 -0.0938046 -0.13223997 -0.030980112 0.11779569 -0.0074077416
0.047305442 -0.051104046 -0.05582343 -0.015316941 -0.07516303 0.015368012 -0.0053201774 0.0067723608
0.009947671 -0.084037796 0.118411444 -0.06591626 0.07794434 0.00944782 0.06431828 0.05873971
-0.034969587 0.024230283 0.029341966 -0.031666413 0.0025919129 0.09875463 -0.0022903262 -0.018439
-0.032980446 0.08360477 -0.04855643 -0.0038020369 0.02978258 0.00047515784 0.0941353 0.03340658
0.00063832576 0.029323574 -0.048927672 -0.10815169 0.07643571 0.020995412 0.0070284354 0.057962485
0.0032501877 0.03971256 0.025114907 0.010840144 -0.017780209 0.08336474 0.010226634 0.068829134

bias f4 [32]
00000000: a22a a23d cd68 6dbd 3320 88bd 5fe4 6abd
00000010: 133f bb3d cb0b 933d 215f c5bd 9627 cabb
00000020: 56d4 6d3d 7bd9 0d3d fbab 713d f056 cabd
00000030: daa8 353d 8740 85bd 8d2d bebd 96da edbc
00000040: 70da 843d 237e 773a 5638 63bc 1740 40bc
00000050: 17ae 193c d186 7bbd 51d8 43bd aa18 923d
00000060: 1008 ae3d 4fe3 2bbd 4bab 82bc a2d8 0bbd
00000070: 6c8e 9f3d 8869 b3bd 2d0b 473d 59af 883d
0.07918288 -0.057961274 -0.066467665 -0.057346698 0.0914289 0.07179984 -0.09637285 -0.00616927
0.058063827 0.034631234 0.059001904 -0.09879863 0.044350483 -0.06506448 -0.09286032 -0.029034894
0.06486976 0.0009441098 -0.013868412 -0.01173403 0.009379885 -0.061407868 -0.047813717 0.071336105
0.084976315 -0.041964825 -0.01595082 -0.034142144 0.07790837 -0.08760363 0.048594642 0.0667407

weight f4 [7, 32]
00000000: 359b e1be 112e 0cbe 6832 a6bf 63cf a8be
00000010: f73c 8c3e 5b9e e93d 1059 a03f d533 a0bd
00000020: fe96 b23e 907f 533e 2f3d 1f3f 2876 77be
00000030: 961f 71be 1827 bbbe 4e5c 4a3f 38a8 61bf
00000040: 5a13 73bf deb2 c93e 0c87 87bf 837c 7ebf
00000050: b6d7 cb3d f3a7 afbf 0aea 903f 43cd b83e
00000060: 4284 03bf 282c e43e d475 043f 79cb 69be
00000070: a82f 3bbe 81eb 643e 2f27 dabf de52 853f
00000080: 9013 213e 12f4 1bbf 9e26 31be 22d6 17bf
00000090: 27e1 e83d f0bf 31bf 0bc0 c03e 0d20 23be
000000a0: fa0b c63e 86b0 32bf 8ac3 873e e793 93bf
000000b0: e5cb d03f d94e 963e 11e4 d0be e189 173e
000000c0: 7cd4 403f 116f 813e 272c ffbe 6b56 78be
000000d0: 044f 5a3e 79cf cc3e a4e7 91bf 7595 48be
000000e0: 3054 bb3e d169 4e3e 167f d3be ae09 073e
000000f0: 597a 033f ad3d df3c 78ce 1e3f ea36 8f3f
00000100: 0d36 20bf 1bd7 923f 41e2 23be ac2d 313f
00000110: dcb9 a6be 67df 093e aebe c1bf a3f3 5e3d
00000120: 99e6 a0bf c8e5 923e 7133 47bf 15dd 1f3e
00000130: 4b1b a9be e583 523f 2e87 153f 8e4e 0e3f
00000140: 1a55 93be 7f08 e83e ee5b 833c 81f5 43bf
00000150: d982 f9bd d503 61be ecb1 d13e 9a99 acbd
00000160: f69e 653c f7ee 1e3f 1c0f 02bf fa75 63be
00000170: 543d 093f 845d 523e dab2 e93e 3bc5 24be
00000180: 2f6b 8d3d ad42 c9be 8327 52be 5e46 963e
00000190: 4762 96be 2028 2a3d 1408 153d 17da 0c3f
000001a0: 8d22 2dbe f5d6 2e3f 0370 a0be 6683 9f3f
000001b0: 1b7c 4d3e 754b 453e a4fd 1c3d 7b13 68be
000001c0: 2ac4 c23c 311f 84be f336 b33e 9ffa 283e
000001d0: 528e a33d 716a d4bd 0538 813e 26d3 a83e
000001e0: 56fd d33e faa7 03be 9c47 24be daf4 07be
000001f0: f654 183f a7d4 e3bd 90ac 1d3f 58eb 873e
00000200: d762 54be 23cd 3fbf f4b3 a03f c518 95bf
00000210: d59a 7cbd bb9f 0abe f2be 3cbe f866 973f
00000220: 38f9 8fbd e457 b2bf dceb 0e3f 7be3 2e3e
00000230: 3042 30be d296 09bf 9a65 ae3c 8f3b a9bd
00000240: daa5 06bd 4a64 61be 7603 ee3d 7639 8fbe
00000250: e410 dbbe b848 593f 8a2b 3b3f eaf1 4abf
00000260: cf22 a03f bf0c 183e c3bc adbe f8a7 09bf
00000270: 0c06 763f 8b9d f2be 865f 3d3e f3ea eb3e
00000280: 21fd c03e 0036 83bf e858 7a3f 45b3 923d
00000290: 0631 cfbe b937 84bc c086 c63e fa83 35bf
000002a0: 68b0 42bf 3f40 743f 93bd 10bf 7a97 bb3e
000002b0: 2eb1 113f 400b 223e 55b1 12bd 759e c9bd
000002c0: fd1c 6bbe 4929 fdbe 26fe 4f3f dd19 82bf
000002d0: 4734 b13d 46bc 453e c537 52be 73e6 353f
000002e0: 02f3 e13e f6a1 20be 4bd9 b03e 14ac 4c3f
000002f0: a552 98bd 35a1 d3bd b5e6 7d3d 56e9 84bf
00000300: f295 b701 9876 7e81 902b 7c01 3814 2781
00000310: a0f4 9a81 a81f f701 de91 9101 2dfd 8a81
00000320: 3419 9581 a4ef 5281 12fe a001 935f 6a01
00000330: be7f bc81 1cb0 c181 a49c 9481 6cd1 9280
00000340: c002 8f81 ace3 9c81 35e7 b501 16c0 5201
00000350: d7ad 43a5 98b2 0b81 9e8d 9701 36c7 a3b0
00000360: f8fc 9081 7665 a101 3282 3880 a449 1681
00000370: a83d 4601 c29a 9181 56da ac01 10e1 6901
-0.44063726 -0.13689448 -1.2984133 -0.32970724 0.27390262 0.11407157 1.252718 -0.07822386
0.34880823 0.2065413 0.62202734 -0.24166167 -0.23547205 -0.36553264 0.79047096 -0.88147306
-0.94951403 0.39394277 -1.0588088 -0.9940874 0.09953253 -1.3723129 1.1321423 0.36094102
-0.51373684 0.4456494 0.5174229 -0.22831525 -0.18279898 0.22355463 -1.7043208 1.0415914
0.15730119 -0.60919297 -0.17299888 -0.59311116 0.113710694 -0.694335 0.37646517 -0.15930195
0.38681012 -0.69800603 0.26516372 -1.1529511 1.6312224 0.2935703 -0.40799 0.1479869
0.75324225 0.2528005 -0.49838373 -0.24251716 0.21319205 0.4000204 -1.1398816 -0.19588263
0.36587667 0.20157553 -0.41307896 0.13187286 0.5135856 0.027251089 0.62033796 1.1188633
-0.62582475 1.1471895 -0.16004278 0.69210315 -0.32563674 0.13464127 -1.5136316 0.05443157
-1.2570373 0.28690934 -0.7781287 0.1561168 -0.33028635 0.82232505 0.5840939 0.55588615
-0.28775865 0.45318982 0.016035046 -0.76546484 -0.1218316 -0.21974118 0.40956056 -0.08427735
0.01401495 0.6208338 -0.50804305 -0.22212973 0.53609204 0.20543486 0.45644265 -0.16090862
0.06905209 -0.39308682 -0.20522885 0.2935056 -0.29371855 0.041542172 0.036384657 0.5502028
-0.16907711 0.6829675 -0.31335458 1.2461975 0.20066874 0.19267066 0.038327828 -0.22663681
0.023775179 -0.25805047 0.3500286 0.16501854 0.0798613 -0.103718646 0.25238052 0.32973593
0.41404217 -0.12857047 -0.16042942 -0.13276997 0.5950464 -0.111245446 0.61591434 0.2654674
-0.2074083 -0.7492239 1.2554917 -1.1648184 -0.061671097 -0.13537495 -0.18432215 1.1828299
-0.070299566 -1.3933072 0.5582864 0.17078964 -0.17212749 -0.5374576 0.021288682 -0.08263313
-0.032873012 -0.22010913 0.11621754 -0.27973527 -0.42786324 0.84876585 0.7311331 -0.7927538
1.2510623 0.14848612 -0.33933076 -0.53771925 0.96102977 -0.4738582 0.1849347 0.4607769
0.37693122 -1.0250854 0.9779191 0.07163099 -0.4046709 -0.016139852 0.3877468 -0.70904505
-0.76050425 0.9541053 -0.5653927 0.36639005 0.5691098 0.15824604 -0.03581365 -0.098446764
-0.22960277 -0.4944556 0.81247175 -1.0164143 0.08652549 0.19310102 -0.20529087 0.7105476
0.44130713 -0.15686783 0.3454078 0.7995007 -0.07437638 -0.10333482 0.061987597 -1.0383708
6.7438744e-38 -4.673752e-38 4.6316345e-38 -3.0687562e-38 -5.6921685e-38 9.0778895e-38 5.3473897e-38 -5.1056483e-38
-5.477012e-38 -3.8742842e-38 5.913929e-38 4.3047583e-38 -6.9243594e-38 -7.114971e-38 -5.459138e-38 -1.3483109e-38
-5.253385e-38 -5.763204e-38 6.6820665e-38 3.8708723e-38 -1.6972453e-16 -2.5658403e-38 5.567185e-38 -1.191643e-09
-5.326024e-38 5.928765e-38 -5.189493e-39 -2.7603483e-38 3.6411093e-38 -5.3486654e-38 6.349612e-38 4.2956816e-38

weight f4 [1, 32]
00000000: 47e6 e73e 1211 c5be b3bb 96bf c8b3 113f
00000010: 64c1 98bd 5b20 00bf c0f1 0f3f 31f6 a93f
00000020: 2bba 5f39 cd81 4f3c 0386 d93e b537 0dbf
00000030: f71c 11bf f9fa 113f 3642 90bc 4469 d23f
00000040: b215 b8bf 20cc 91be 4965 973d d41c 9cbe
00000050: d214 4bbe dc86 b23e c1a9 963e 7ba5 493f
00000060: 8264 8db9 223b 41be d09f e6bf bee0 52bf
00000070: 7271 143f a5c0 193f 2c7e a43f 709f 6d3f
0.45292875 -0.38489586 -1.1776031 0.5691495 -0.07458761 -0.5004937 0.56228256 1.3278257
0.0002133629 0.012665224 0.42485055 -0.5516313 -0.5668482 0.5702358 -0.017609697 1.6438375
-1.4381621 -0.28476048 0.073923655 -0.30490744 -0.19832161 0.34868515 0.29426387 0.7876813
-0.000269685 -0.18870214 -1.8017521 -0.8237418 0.57985604 0.6005958 1.2851005 0.9282141

weight f4 [32, 64]
00000000: 3b2a 66bd 7d5e 683e e7e4 3e3a 32ad e53d
00000010: ec23 8abd 99d3 ad3d ec10 9fbd 381d 753d
00000020: fec3 d2bd 3922 973d d6da 29be 6c45 14bc
00000030: 6741 d5bd 8976 dd3d 86d5 ae3d 8ce7 083e
00000040: 20e1 d23c 002b 55bb c863 c4bd a30b 3e3d
00000050: 006e 17bb 117f 963d b685 ea3d f774 58bd
00000060: 9ae0 c73d 1891 36bd dea4 48bd b113 71bd
00000070: 22b4 2ebd 9733 e53d 478d 2dbd 4dc0 1abb
00000080: a795 49bd 1774 d7bc cf27 22bd 6371 923d
00000090: 04b0 3bbd 79df 96bd af24 903d 5ed2 8ebc
000000a0: 96ee ab39 ad44 3fbc b575 89bd 080a aebd
000000b0: 9935 433d d65a b0bd 03fd f33b 3ac6 66bd
000000c0: c966 a7bd 76f4 373d 3c6c 26bd a265 323c
000000d0: ef6f 18bd 07b2 00bd 0dab adbd 922c e3bd
000000e0: 408c fdb6 24ea 173d ef0f 963c 6a32 babd
000000f0: 5406 ac3d 9542 d2bd 9199 093d 68d2 8fbd
00000100: 4703 f33d 406c d73d e7c3 2a3d 924a 9e3d
00000110: ee63 a8bd 9cf2 513d 7e16 383d c45c 6fbe
00000120: 7e49 93bd 33ca 0f3e 5fa8 32bc c978 903c
00000130: d529 b9bd 2a55 b0bc cb7f b4bd 6f8e a4bd
00000140: 08a0 693d f448 95bd 794b 113e 3582 f7bd
00000150: 1fb5 533d e260 1ebd 5586 8bbb 5233 adbc
00000160: 218f fbbd 1dc9 cdbb 596e 953d 3a56 8a3d
00000170: c049 cdb9 645e 7abd a1ae c43c b84d 15be
00000180: 4e5c 06be aef9 353b 8f62 0a3e e0ca 71bd
00000190: b9a1 c6bb e06f 55bd b82b 36bd 21cf 103c
000001a0: 1620 3639 e62f 9c3c 4a01 80bd c086 22bd
000001b0: b220 a4bd abf0 623c afbb 2fbd b40a cbbd
000001c0: 22eb 3c3d 03eb 67bd 21f3 bebd 1b57 383d
000001d0: 56d7 023d 5441 793d 93e8 373c 4aa5 a7bd
000001e0: 637e 87b9 448c 3c3b 1c6d 1f3d 13d8 83bd
000001f0: 37b7 3c3c 984d 913b 635c 98bd 9613 513d
00000200: ab35 a1bd 9adc c3bd ff4e d6bd 3146 af3c
00000210: eb81 d83d 8d35 003c b782 7b3c 12bc 28be
00000220: 0c2e 363d 681e f63d f5ed f9bc a8ed 5ebe
00000230: b076 2fbd 2516 d8bd b816 793d 1c7e d3bd
00000240: efb0 b2bc f446 88bd 3470 063d cbb0 a4bd
00000250: cbf9 afbc b189 dcbd 2750 21bd eecb 033e
00000260: 3132 a4bd 41ff 313c 475b e33d 2167 d43d
00000270: 03da 54be e8a2 563d 0554 cdbb 543c fbbd
00000280: 2b82 703c 99b1 a23d 0392 fd3c d5b0 dc3c
00000290: 5cfd c93c be6d ea3d 74bf d4bd 2717 d1bc
000002a0: f9ac 8d39 fdcc 17bc ea5a 1b3d 684c e23d
000002b0: 06d1 793c 467c f8bd c18e 6e3c f175 d6bc
000002c0: f3c4 a53d a588 02bd 1366 acbc 2c3f 773d
000002d0: 5be1 a73d 060b aebd 9e20 bebd d85f 203b
000002e0: fb0b d0b9 e134 923c 8727 523d d1a8 2abd
000002f0: 01cc 283d 2ab0 bdbd 9337 d7bd de46 3ebd
00000300: 6c70 04bd d19f ed3d 0ab4 2dbe 735b 80bd
00000310: b481 7e3d 0f9d 57be e26d 033e 6273 c4bd
00000320: 8d64 07bd 7745 1fbe 9be3 733d 9730 c9be
00000330: 88ce c13e 2dee f63d 819d 48bd 8a0c 7cb9
00000340: 6d17 143e a06c a33c 975c 4ebe 697b e43d
00000350: 3710 d33d e960 d8bd 3dd0 05be 1e9d 81bd
00000360: d450 25be 6201 9d3d c4cb a6bd cad0 083a
00000370: 45f9 a73d 272a d23d 3cf3 023e 030c 0c3e
00000380: 3b29 dd3c 05b9 163b 4fbc e93d ba9c f13c
00000390: fe74 f3bb a59c 883d 3008 71bd 2dce 15be
000003a0: a22b 5138 cf4a 6939 6ac2 53bd 4cf9 963c
000003b0: 4135 e8bc fe4e 8b3d 867a 7e3c f2fd ecbc
000003c0: 4ece a73d 73ee 37bc 7fb5 b7bc 5df7 d8bc
000003d0: 22db 8dbc 031e 89bd ad35 a5bd da93 10be
000003e0: c6fc 8d39 00c0 9e3c 09ab 173e 74e5 6f3d
000003f0: 84f2 febd 480a 89bd a908 a83d 1349 863c
-0.056192618 0.22692294 0.0007282034 0.11214675 -0.06745133 0.08487625 -0.077668995 0.05984232
-0.10291289 0.07379574 -0.16587386 -0.009049755 -0.10412865 0.108136244 0.0853682 0.13369578
0.025742114 -0.003252685 -0.09589344 0.046397816 -0.0023106337 0.07348455 0.114512846 -0.05284592
0.09759636 -0.044571966 -0.048985355 -0.05885667 -0.042652257 0.111914806 -0.04237106 -0.0023613155
-0.049214985 -0.026300473 -0.039588746 0.07150533 -0.04582216 -0.07366843 0.07038247 -0.017434295
0.00032793422 -0.011674088 -0.06711904 -0.08498007 0.047658537 -0.086110756 0.007445933 -0.056341387
-0.081739016 0.04491087 -0.040630564 0.010888489 -0.037216123 -0.03141978 -0.08479891 -0.110924855
-7.556315e-06 0.03708853 0.018318145 -0.09091647 0.083996445 -0.10266606 0.033593718 -0.07022554
0.118658595 0.10518694 0.041690733 0.07729067 -0.08222185 0.05125676 0.044943325 -0.23375231
-0.07191752 0.14041977 -0.010904401 0.01763572 -0.09041182 -0.021524984 -0.08813437 -0.080349796
0.057037383 -0.07289305 0.14188947 -0.12085382 0.051686402 -0.038666613 -0.004257957 -0.021142635
-0.12283159 -0.006280078 0.07296438 0.06754728 -0.00039155595 -0.061125174 0.02400905 -0.14580429
-0.13121149 0.002776723 0.1351416 -0.059031367 -0.0060617593 -0.052108645 -0.044475287 0.008838446
0.00017368826 0.019065809 -0.06250246 -0.03967929 -0.08014049 0.013851325 -0.0429036 -0.09914151
0.046122678 -0.05662061 -0.09323717 0.045004945 0.03194364 0.060853317 0.011224884 -0.08185823
-0.00025843372 0.0028770128 0.038922414 -0.06437697 0.011518291 0.0044342987 -0.07439496 0.05104407
-0.078715645 -0.09563561 -0.10464286 0.021395775 0.10571655 0.0078252675 0.015350989 -0.16477993
0.044477507 0.12017518 -0.030508975 -0.21770346 -0.0428378 -0.10551099 0.060812682 -0.10326788
-0.021812884 -0.06654158 0.03282185 -0.08041533 -0.021481415 -0.1076845 -0.03938308 0.12870762
-0.08017386 0.01086408 0.11101394 0.10371233 -0.2078629 0.052401453 -0.0062661194 -0.12267366
0.014679472 0.0794403 0.030953413 0.026939789 0.024656944 0.11446713 -0.10388079 -0.025523735
0.0002702249 -0.009265182 0.0379285 0.110497296 0.015247589 -0.12133078 0.014560402 -0.026179286
0.08094206 -0.031868596 -0.021044767 0.06036298 0.0819728 -0.08498196 -0.09283565 0.002447119
-0.00039681778 0.01784748 0.051307227 -0.041664902 0.04121018 -0.09262116 -0.10508647 -0.046454303
-0.032333776 0.11602748 -0.1696321 -0.062674426 0.062135413 -0.21056007 0.12834886 -0.0959232
-0.033054877 -0.15553842 0.059543233 -0.39294884 0.37852883 0.12057147 -0.048978332 -0.00024037264
0.14462061 0.019949257 -0.20152508 0.11156351 0.10305827 -0.10565359 -0.13067718 -0.06328796
-0.16144115 0.076662794 -0.08144334 0.00052191 0.08201841 0.10261946 0.12788099 0.13676457
0.0269972 0.0022998464 0.1141287 0.029493678 -0.007429718 0.066705026 -0.0588457 -0.14629431
4.987012e-05 0.0002224848 -0.05169908 0.01842942 -0.028345706 0.06802176 0.015532142 -0.028929684
0.08193646 -0.011226284 -0.022425411 -0.02648514 -0.017316405 -0.066951774 -0.080668785 -0.14118901
0.00027081947 0.019378662 0.14811338 0.058568433 -0.124486 -0.06691414 0.08204777 0.016392266

bias f4 [32]
00000000: e1cf 82bd 5c52 a3bd af5f 7bbc 2762 a4bd
00000010: 6fbc f4bd d925 f73c 22d4 d8bc 0dbf 9f3d
00000020: 49d8 d6bc eba0 b93d ac98 acbd 6fa3 85bd
00000030: c13a 86bd c828 e83c 7e2e 063d d5e1 633d
00000040: 2c93 cdbd fd0f ab3b c295 f83d aa81 0abd
00000050: 87ce 9dbd 5a98 afbc 5976 eebd 6d66 933d
00000060: 4397 283c fa57 b0bb 3f5a 1e3d 857c 88bd
00000070: fb38 24bd ad9c e8bd 741b 8bbd 4100 5dbd
-0.06387306 -0.07974693 -0.015342637 -0.080265336 -0.11950003 0.030169414 -0.02646834 0.07800112
-0.02622618 0.09063896 -0.08427557 -0.06525313 -0.06554175 0.028339759 0.032759182 0.055635292
-0.100378364 0.005220412 0.12137939 -0.033815064 -0.077054076 -0.021434952 -0.11643667 0.071972705
0.01028997 -0.0053815814 0.038660284 -0.06664375 -0.040093403 -0.113580085 -0.06792346 -0.05395532

weight f4 [32, 1]
00000000: 22e7 16bf 58fb 1c3c e455 133f 3858 a7be
00000010: 71d6 d8bd 61dd bb3e a9cb 223e 7773 e73e
00000020: 766c ae3e 9888 0cbf d519 853e 024b 9e3e
00000030: 7853 01bf 6a1a 93be c3cb b03e d498 3d3e
00000040: 60ac d1bd 9585 d7be 78ff d43d 274e df3e
00000050: 1f3e b23e c4f0 993e 45fc b43e abb7 823e
00000060: 93fb 7c3e 4b64 80be 79c2 8f3e 6075 10be
00000070: dfe1 993e f555 073d 917b b13e 02ae 663e
-0.5894643 0.009581409 0.57552934 -0.32684493 -0.105877765 0.36692336 0.15898003 0.4520528
0.34067124 -0.54895926 0.2599627 0.309166 -0.5051799 -0.2873109 0.34530458 0.1851533
-0.10237956 -0.42094103 0.10400289 0.43614313 0.3481302 0.30066502 0.35348716 0.25530753
0.24705343 -0.25076517 0.28078058 -0.14107275 0.30055138 0.03304096 0.34664586 0.22527316

bias f4 [32]
00000000: cd50 2c3e d9d6 f43e bb13 693e 60d9 3b3f
00000010: 1535 24bf ea90 8ebe 6293 383e 4897 69be
00000020: 7d7c 823e f498 3dbc 1e33 e5be eaf7 43bf
00000030: e6be a73d a62e 143f 001f 2ebf 98ab 3b3e
00000040: ef9d 6abe 088c 2d3f 29e2 43be dd5d 76be
00000050: bad2 bbbd 028e 4d3f f820 183f e9cd 173f
00000060: c32f 19bf 89f4 eb3d 141f a03e c7d0 22bf
00000070: 3470 03bf 5f2f 37bf 6caa 08bf 3877 293e
0.16827698 0.47820166 0.22761433 0.7337856 -0.64143497 -0.27844936 0.18024972 -0.22811615
0.25485602 -0.011572111 -0.44765562 -0.7655016 0.08190708 0.5788368 -0.6801605 0.18327177
-0.2291181 0.67791796 -0.19129242 -0.24059244 -0.09171052 0.8029481 0.59425306 0.5929857
-0.59838504 0.11521251 0.3127371 -0.6359982 -0.51343083 -0.7155666 -0.53385043 0.16549385

weight f4 [1, 32]
00000000: 3ddb d73b f6c8 62be b8d6 203e 180c 88be
00000010: fd36 883f fc0e 9c3e 7976 b0bc a3d2 90b9
00000020: fc95 91bd a164 0bbf 648e 08be d857 1f3f
00000030: efdf 8ebf 52c4 813f 63bb a9be aa17 e5bf
00000040: aa39 7dbf c24e 96bf b684 383f a270 babd
00000050: 8e87 3e3e 2e18 f53e bf0c ac3e 3ec8 ccbe
00000060: 14d1 23bf 30b3 873e a8fa b1bf caf1 fcbe
00000070: 5393 7c3f 14ed 31bf 8be7 453f 57cc 373f
0.0065874145 -0.22146973 0.15706909 -0.26571727 1.0641781 0.30480182 -0.021540867 -0.00027622757
-0.071086854 -0.5445042 -0.13335568 0.62243414 -1.1162089 1.0138037 -0.33150777 -1.7897847
-0.98916113 -1.1742785 0.720775 -0.09103514 0.18606398 0.4787001 0.33603474 -0.39996523
-0.639909 0.26503897 -1.3904619 -0.4940322 0.986623 -0.6950238 0.7730643 0.7179617
